…
>>> 
(env) (base) dp823@ziva:~/minChatGPT/my_minChatGPT/src$ python train_sft.py 
Loading EYLSFTStaticDataset train split
Loaded 19934053 tokens from 84576 examples.
Loading EYLSFTStaticDataset test split
Loaded 844060 tokens from 3451 examples.
=========================================================================================================
Layer (type:depth-idx)                                  Output Shape              Param #
=========================================================================================================
GPT                                                     [1, 1024, 50257]          --
├─TransformerDecoder: 1-1                               [1, 1024, 1024]           --
│    └─Embedding: 2-1                                   [1, 1024, 1024]           51,463,168
│    └─Embedding: 2-2                                   [1, 1024, 1024]           1,048,576
│    └─Dropout: 2-3                                     [1, 1024, 1024]           --
│    └─ModuleList: 2-4                                  --                        --
│    │    └─TransformerDecoderBlock: 3-1                [1, 1024, 1024]           12,596,224
│    │    └─TransformerDecoderBlock: 3-2                [1, 1024, 1024]           12,596,224
│    │    └─TransformerDecoderBlock: 3-3                [1, 1024, 1024]           12,596,224
│    │    └─TransformerDecoderBlock: 3-4                [1, 1024, 1024]           12,596,224
│    │    └─TransformerDecoderBlock: 3-5                [1, 1024, 1024]           12,596,224
│    │    └─TransformerDecoderBlock: 3-6                [1, 1024, 1024]           12,596,224
│    │    └─TransformerDecoderBlock: 3-7                [1, 1024, 1024]           12,596,224
│    │    └─TransformerDecoderBlock: 3-8                [1, 1024, 1024]           12,596,224
│    │    └─TransformerDecoderBlock: 3-9                [1, 1024, 1024]           12,596,224
│    │    └─TransformerDecoderBlock: 3-10               [1, 1024, 1024]           12,596,224
│    │    └─TransformerDecoderBlock: 3-11               [1, 1024, 1024]           12,596,224
│    │    └─TransformerDecoderBlock: 3-12               [1, 1024, 1024]           12,596,224
│    │    └─TransformerDecoderBlock: 3-13               [1, 1024, 1024]           12,596,224
│    │    └─TransformerDecoderBlock: 3-14               [1, 1024, 1024]           12,596,224
│    │    └─TransformerDecoderBlock: 3-15               [1, 1024, 1024]           12,596,224
│    │    └─TransformerDecoderBlock: 3-16               [1, 1024, 1024]           12,596,224
│    │    └─TransformerDecoderBlock: 3-17               [1, 1024, 1024]           12,596,224
│    │    └─TransformerDecoderBlock: 3-18               [1, 1024, 1024]           12,596,224
│    │    └─TransformerDecoderBlock: 3-19               [1, 1024, 1024]           12,596,224
│    │    └─TransformerDecoderBlock: 3-20               [1, 1024, 1024]           12,596,224
│    │    └─TransformerDecoderBlock: 3-21               [1, 1024, 1024]           12,596,224
│    │    └─TransformerDecoderBlock: 3-22               [1, 1024, 1024]           12,596,224
│    │    └─TransformerDecoderBlock: 3-23               [1, 1024, 1024]           12,596,224
│    │    └─TransformerDecoderBlock: 3-24               [1, 1024, 1024]           12,596,224
│    └─LayerNorm: 2-5                                   [1, 1024, 1024]           2,048
├─Linear: 1-2                                           [1, 1024, 50257]          51,463,168
=========================================================================================================
Total params: 406,286,336
Trainable params: 406,286,336
Non-trainable params: 0
Total mult-adds (M): 406.29
=========================================================================================================
Input size (MB): 0.01
Forward/backward pass size (MB): 2651.46
Params size (MB): 1625.15
…
